mnist_fc_data/quick/0/same_init/final/layer1.npy (npy, 120128 bytes, 1 tensors)

array f4 [300, 100]
00000000: a63f 7a3c fa6a 50bd a9ae 853d 581f 913d
00000010: a35c 7fbc 6262 b1bd 8628 debc 64b9 01be
00000020: 426c 0f3e 0294 733d c07b 71bd 6be1 d93c
00000030: 22c0 19be 31ac 8cbd 4adf cebb 7497 093c
00000040: 9224 24bd 1e53 8cbb 89d9 8bbd 46ac 5dbd
00000050: cdbe 13be 7223 cb3b 97fc a43d cb11 13bd
00000060: 52fd 8c3c 103b c3bd f4e5 413d 30f5 093e
00000070: 3dd2 6a3d 89c9 b8bc d1d5 9c3a 4c4c f2bd
00000080: d067 ae3d dac4 723b a780 333c 9776 43bd
00000090: be30 19be be9c b2bd bea3 f3bd b0d4 babc
000000a0: e57b 233e 914f cf3d cf3c 42bc 06a4 c53b
000000b0: bacc 473d 7d9c 91bd 67af dd3c 1d4b 403d
000000c0: c92d f83d 4bcb 823c 7645 3ebd eaf1 ff3d
000000d0: 977f 7dbd 025f 713c bccb 01bd 8919 95bd
000000e0: 191d b13d d630 973d 93e7 cdbc 6fee 1dbe
000000f0: b398 883d aacf 14bd 2b54 653d 749e 86bd
00000100: a37a 573d c6e0 4d3c 3fbe 163e ade7 15bd
00000110: c26b 293d d09f c13c ef8b e2bd 0fc6 40bd
00000120: ec2c fc3c e65c 03be 82cc 933b 146f f63d
00000130: f066 e23c 1c05 923b 9a08 fa3d cbe0 003d
00000140: e401 203d 5f72 4d3c bf66 c6bd f983 13bc
00000150: 78dd 87bd aa68 093d 436c b13d 0e3d 163d
00000160: 2ad5 bebd 071e cc3d 696d e2bd 9327 ddbc
00000170: 6bfd cf3d adb8 1c3e fb60 5e3d d19f 423d
00000180: 952b 02be 1a89 f3bc 15fb ae3d 7ae0 213d
00000190: 80c9 103e ab65 c33d ce4b b9bd 3286 4abb
000001a0: 529b 0f3d 156d 553c d765 273e d0bf b6bc
000001b0: ab39 823d b464 45bd 25d7 c0bc 1366 183d
000001c0: 320f af3d d146 a8bd 118c 3bbd 64bd d7bc
000001d0: 754a 803d 2521 873c 1329 953c 1316 46bd
000001e0: d160 5e3d dbbf 75bd 51e3 dabc bd29 53bd
000001f0: 20d4 9dbd 6cf1 a0bd 02b8 443d 8b9d 6cbd
00000200: 03da 87bc 82f3 bdbd cd75 b43c acbc c2bc
00000210: e6aa 953d 50b8 0fbe 5270 fdbd 61a3 c8bd
00000220: f40d 7bbd 4e33 e9bd 94c1 633d c66e 3abc
00000230: 54d8 543c e240 d0bc 74fe 163d 0c81 8cbd
00000240: 5455 0dbe d9d5 e13b 6bcc 38bc f704 233d
00000250: b296 84bb 2377 0d3d 00c3 b83d fa6e 01be
00000260: b2bd 033e 98c5 a13d 5ca8 fb3b cbd0 61bd
00000270: 863c 81bd 88b1 f73d c3b4 b6ba da87 9e3d
00000280: dab8 b13c 0634 8abc 2ae3 5e3c f1d8 613d
00000290: 025c eeba 1cfa d5bd d499 89bd 631f e43d
000002a0: b34c 5d3d a201 b0bd d888 8d3c 0486 6ebd
000002b0: dfb9 cc3a 20ae 83bd 4bc8 0abe 0fd0 c43c
000002c0: d2e4 1cbd ea54 593d 9d99 3b3d 865c b6bd
000002d0: 3f41 9abd c395 36bd 4921 493d b837 f8bd
000002e0: 0e8a e4bd dcac 78bb 4ad8 5f3a 8e53 8d3c
000002f0: e895 343d 4c9f 8d3c 89f7 5abd f6f1 dfbc
00000300: a8d5 383d caa0 13be f561 4cbd 137a ccbc
00000310: 4188 82bd cd24 b4b9 76fd 673d 9600 d8bb
00000320: f314 83bd b26b 19bc bfa0 ecbc e695 b6bd
00000330: ad1a f73d 2f75 b4bd d043 1ebd 8dab 51bb
00000340: f93e f13c 33e3 13bc 948d 87bc bef5 0dbe
00000350: 1715 01be b612 d13c b8a3 cfbd 55e0 813d
00000360: 8bc1 643d 1e57 173d 4aaf 143e b75b d53d
00000370: fd64 adbd e668 80bd 4682 d53d b388 a0bd
00000380: b4aa b8bc be39 5b3c be88 613d 205e 49bd
00000390: ddf1 92bd f3bf 873d 2831 aebd 185d a9bc
000003a0: 0990 c8bb 38de 21bd 72e3 81ba a01d 71bd
000003b0: 4b69 d7bd 0f81 e8bc 1544 893a 602f a1bd
000003c0: 872c 003d 07ab 2dbc 9780 863d d2e9 e63d
000003d0: f3f6 003d c6f5 813d 5b17 e03c 8df9 efbd
000003e0: 439c 1ebe 35b2 81bd da46 d73d ee40 303d
000003f0: 9c0c 90bd a6b9 2d3d b8e8 823c 80d6 383d
0.015273964 -0.05088327 0.065274544 0.070860565 -0.015586051 -0.08661343 -0.027118932 -0.12668377
0.14006141 0.059467323 -0.058955908 0.026596745 -0.15014699 -0.068687804 -0.006313239 0.008397926
-0.04007394 -0.0042823693 -0.06828601 -0.05411937 -0.14428253 0.006199294 0.0805599 -0.03590564
0.017210636 -0.0953275 0.04733844 0.13472438 0.057329405 -0.022557037 0.0011965578 -0.11830959
0.085158944 0.0037043602 0.010955966 -0.047720518 -0.1496 -0.087213024 -0.11896466 -0.022806495
0.15965231 0.10122598 -0.011855318 0.006031516 0.048779227 -0.07109926 0.027061177 0.046946634
0.12118108 0.015966078 -0.04645296 0.12497313 -0.061889257 0.014732124 -0.031688437 -0.07280261
0.08648128 0.073823616 -0.025134837 -0.15422986 0.0666975 -0.036330856 0.055988472 -0.06573191
0.05260719 0.012565797 0.1472101 -0.036597896 0.04136253 0.023635775 -0.110618465 -0.047063883
0.03078314 -0.12828407 0.004510463 0.12032905 0.027636975 0.0044561755 0.12208672 0.03146438
0.039064303 0.012539475 -0.09687566 -0.009003633 -0.06634039 0.03354708 0.086632274 0.03667932
-0.093180016 0.09966665 -0.110560246 -0.02699641 0.101557575 0.15304823 0.054291707 0.047515694
-0.12711938 -0.029728461 0.08543984 0.03952072 0.14139366 0.09540876 -0.09047662 -0.003090274
0.035060234 0.013026495 0.16347443 -0.02230826 0.063586555 -0.04819174 -0.023540089 0.03720672
0.0854782 -0.08216632 -0.045787875 -0.026335426 0.062642016 0.016495297 0.018208062 -0.048360895
0.05429155 -0.05999742 -0.026719721 -0.051553477 -0.07706475 -0.078585476 0.048027046 -0.057767432
-0.016583448 -0.09274961 0.022028828 -0.023771606 0.07307987 -0.14035153 -0.12374939 -0.09796787
-0.061292604 -0.11386739 0.055604532 -0.0113789495 0.01299103 -0.025421564 0.03686376 -0.06860551
-0.13802081 0.0068919477 -0.011279206 0.039799657 -0.0040462846 0.034537446 0.09021568 -0.1263999
0.12865332 0.07899016 0.007679982 -0.05513076 -0.06310372 0.12094408 -0.0013939369 0.077407554
0.02169459 -0.01687051 0.013603965 0.055138532 -0.001818538 -0.10448095 -0.067187935 0.11138799
0.054028224 -0.085940614 0.017277166 -0.058233276 0.0015619359 -0.06429696 -0.13552968 0.024024991
-0.038304158 0.053059496 0.045800794 -0.08904366 -0.07531976 -0.044576418 0.04910401 -0.121200025
-0.11159144 -0.003794483 0.00085390045 0.017251756 0.044088274 0.017287873 -0.053458724 -0.027337056
0.045125633 -0.14416805 -0.049898107 -0.024960553 -0.063736446 -0.00034359694 0.056638204 -0.0065918667
-0.0640048 -0.0093640555 -0.028885243 -0.089153096 0.12065635 -0.088114135 -0.03863889 -0.0031993121
0.029448973 -0.0090263365 -0.016547002 -0.13863274 -0.12605701 0.025521617 -0.10138649 0.06341616
0.05584864 0.036948316 0.14519992 0.10417884 -0.084665276 -0.06270008 0.10425238 -0.07838573
-0.022542335 0.013380466 0.055062048 -0.04916203 -0.07175038 0.06628408 -0.085054696 -0.020674273
-0.006120686 -0.039518565 -0.0009909703 -0.058866143 -0.1051813 -0.028381852 0.001047256 -0.07870364
0.031292465 -0.010599858 0.06567495 0.112750664 0.03148551 0.06345706 0.027354887 -0.1171752
-0.15489297 -0.063328184 0.10511561 0.04303067 -0.07033655 0.042413376 0.01598011 0.04512644
