mnist_fc_data/quick/0/same_init/final/layer2.npy (npy, 4128 bytes, 1 tensors)

array f4 [100, 10]
00000000: 8e9d 68be aa66 8abe 7cbe 5fbd 8f4a f4bd
00000010: 1080 953e 7560 a53d 7d1c f13c dd54 933e
00000020: 63f0 82bd 21ca 7f3c 8b0c 76bd 0812 febd
00000030: 68d1 893e eb79 173e 88ab 51be 63db 22bd
00000040: c8bc 02be a283 d93d 21ea d63d e643 75bd
00000050: 3e57 b53e 6d7f fe3d 0887 d83d 0e46 86bb
00000060: 4012 3dbd 5924 21bd aded 97bc 22e3 1e3d
00000070: 6b0d 2bbe 34aa 3ebe 8d14 aa3e 33c0 eebd
00000080: ceb4 12be 3b8e c23d 4c23 58be fabf 6c3d
00000090: 4a4b 003e 049d 93bd 5028 a23d c4d3 4b3e
000000a0: 966e 963e 8181 ebbd 8e3b 4bbe 5d41 17be
000000b0: 8dc0 163d dba2 713e b5ee 043e 3b69 c93d
000000c0: 4f96 abbd 3b4e 86bc 3061 ed3d 090a 9bbe
000000d0: 706b 403d 923d 37bb 0d91 b83e 6c73 5dbe
000000e0: f20f 04be 1a87 053e 35dc b6bd 9262 b83d
000000f0: 3a93 e4bd 22cd 79bb f1db 273e cc6c 683d
00000100: 18a9 543e 2255 2fbe 402f 87bb f8d5 a33d
00000110: 3f2c 7cbe da30 c73d 8830 bfbd cefe c8bd
00000120: 7115 f93c 302e 0a3d 4539 e43d 5cd7 f93d
00000130: 412a 03be 513e 40be 6cda ee3d a754 a5be
00000140: 4a3a 2e3e 3f82 cd3c 66ff 763e 38ae 7d3c
00000150: 663f 2ebd 9643 493d 1c4a 403e 8c12 483e
00000160: fc31 943d 0fb0 f6bd a333 8a3e 901d abba
00000170: ed19 2f3e e04c 83be 3d9f 91bd f08b 6ebe
00000180: d96e a2bb feff 82be afc4 663e 02ab 9bbc
00000190: 2eb5 4e3e 36db cd3d ab40 2bbe 66dc 05be
000001a0: 1aa5 c1bc c35e 643d c2ac a13d 5117 45be
000001b0: be94 f2bc 3e48 493d 9ba3 96be be4f 43be
000001c0: 3a3a 28be 9459 3b3e f0be 233d a3d3 bf3d
000001d0: 122a 0bbe dcaf 7d3e 7dcd 59be d9e3 c63e
000001e0: 26dd a23e e998 963d e727 a23d 76d9 fd3d
000001f0: 65ec 61bd cbbf ca3c 67f3 54bd 0c21 cd3c
00000200: 2cde 8dba 12cc 7c3d 7bf1 41bd c3d6 a93e
00000210: 634b 4c3d edbf 0d3e 387a 133d 5b47 01be
00000220: bf24 07be 8a6f c6be c73c 1d3e 9f2d 993c
00000230: 2f90 8fbc 71ae 873e 4cae 38be 5f43 d73d
00000240: 47f9 3d3e 2959 13be cf9b 823c 6272 c3bd
00000250: 4105 69be 8014 0b3d cdf1 253c dd2b 963d
00000260: 4dca 763e fb82 1dbe 4554 b2bc babb 6bbe
00000270: 4286 74be 6606 543e f050 86bd 9a15 73bd
00000280: 33a9 72be ecc8 ac3d 5fd6 0a3e 1dfa c83d
00000290: 6c3b 0fbd 7b57 4abe 6599 803c e84d 0a3e
000002a0: 6eef 70be 4a82 033e 6c57 1d3e 520a 693e
000002b0: bf0b a33e 2f73 b63e fca5 bf3d ccac 4dbe
000002c0: d4d2 153d d09b c2bd 0067 683e e8d0 7cbe
000002d0: b722 0dbd 0288 a6be 7fc0 323d c6ba f43d
000002e0: 3c94 c9bd eb76 9bbd a316 243e 057c 15be
000002f0: 17ae 6cbd c4ad 84be 05fe a43e d2da d2be
00000300: df68 923e 6d0b d6bc 179b 8a3c 45d3 ac3e
00000310: 4790 353e ebef f33a 3d22 823e c9ff 13be
00000320: a7e3 b0be 0f91 a13d 8842 90be 47e9 ffbc
00000330: 42c4 ba3d f7fb 54be 00f1 47be 753f 2d3e
00000340: df6c 81bd e347 a73d 7d1c cc3d 4943 77bd
00000350: 0328 36be e908 6ebc 9ce7 47be 2a73 07be
00000360: e7d5 a5bd 0675 c43e 7cdc a4bd 1337 2ebe
00000370: 19f5 1ebe 6791 403e 364c d53d 64b4 1e3e
00000380: 4788 98bd 752c 09be 1d5d 69be 9e39 02be
00000390: a3f5 10be d0f2 adbe 1a75 b9bd b65b b33d
000003a0: 81d8 87bd aa23 7e3b c45a 613d 3e8e 833e
000003b0: 4733 f3bd ea78 323e b314 103e 5510 63bd
000003c0: b8c8 21be 19d5 5d3e a169 013e 8c0f 083e
000003d0: 8f11 70bb 20a9 00bc c527 8ebe d2c7 2cbd
000003e0: 75b6 24be b4a9 0dbe d755 eabc a073 813e
000003f0: 745b 33be d6cc 31be 1db0 b0bc a57d 973e
-0.22716352 -0.2703145 -0.05462502 -0.119282834 0.29199266 0.08075038 0.02943253 0.28775683
-0.063935064 0.015612156 -0.060070556 -0.12405783 0.26917577 0.14792602 -0.2047559 -0.039760005
-0.12767327 0.1062081 0.10493875 -0.059879206 0.35418123 0.12426648 0.1057263 -0.0040977066
-0.046159983 -0.039341304 -0.01854595 0.03879083 -0.16704337 -0.18619615 0.33218804 -0.11657753
-0.14326784 0.094997846 -0.21107215 0.05780027 0.1252872 -0.07207683 0.07917845 0.19905001
0.29381245 -0.1149931 -0.19846937 -0.14771028 0.036804724 0.2359728 0.12981685 0.09834524
-0.083782785 -0.016394725 0.11590803 -0.30281094 0.04697746 -0.0027960283 0.36048165 -0.21626061
-0.12896708 0.13039818 -0.0892872 0.09003176 -0.11160894 -0.0038116653 0.16392495 0.05674438
0.20767629 -0.1712232 -0.0041255057 0.07999796 -0.24626254 0.097261146 -0.093354285 -0.09814225
0.030405732 0.033735454 0.11143736 0.1219928 -0.12809087 -0.18773772 0.116627544 -0.32291147
0.17014423 0.02508652 0.24120864 0.0154834315 -0.04254093 0.04913672 0.1877827 0.19538325
0.07236096 -0.12045299 0.2699252 -0.0013055075 0.17099734 -0.25644588 -0.071104504 -0.2329557
-0.0049570617 -0.25585932 0.22535966 -0.019002441 0.20186302 0.10051577 -0.16723888 -0.13072357
-0.023638297 0.055754434 0.07894279 -0.19247176 -0.029611941 0.04914116 -0.29421696 -0.19073388
-0.16428462 0.1829589 0.039977014 0.093665384 -0.13590267 0.24774116 -0.21269794 0.3884571
0.31809348 0.07353384 0.07917767 0.12394993 -0.055157084 0.024749657 -0.05198994 0.025040172
-0.0010823659 0.061718054 -0.047349434 0.33171663 0.049876582 0.13842745 0.03600523 -0.12624876
-0.13197611 -0.38756973 0.15355216 0.018698512 -0.017524807 0.26500276 -0.18035239 0.10510897
0.18552123 -0.1438948 0.015943436 -0.09543301 -0.2275591 0.033955097 0.010128451 0.07332585
0.24100609 -0.15381996 -0.021768698 -0.23020831 -0.2387934 0.20705566 -0.06558406 -0.059346773
-0.23697357 0.0843676 0.13558339 0.0981333 -0.03496878 -0.19759934 0.015698144 0.13506281
-0.23528835 0.1284267 0.1536538 0.22757843 0.318449 0.35634753 0.09357831 -0.20085448
0.036578014 -0.09502375 0.22695541 -0.24689066 -0.034456935 -0.3252564 0.04364061 0.11949687
-0.098427266 -0.07591041 0.1602426 -0.14598091 -0.057783213 -0.25913823 0.32225052 -0.41182572
0.28595635 -0.026128495 0.016919656 0.33754936 0.17730819 0.001861093 0.25416747 -0.14453043
-0.34548685 0.07888996 -0.2817576 -0.031239165 0.091194645 -0.20799242 -0.19525528 0.16918738
-0.06319594 0.08168008 0.09966371 -0.060366903 -0.17788701 -0.0145284915 -0.19521946 -0.13227525
-0.08097439 0.38370532 -0.080498666 -0.17013197 -0.15523185 0.18805467 0.10414927 0.15498501
-0.07447868 -0.13395865 -0.22789426 -0.12717292 -0.14156203 -0.33974314 -0.090555385 0.08757727
-0.06633092 0.0038778582 0.0550182 0.2569446 -0.11875015 0.17428938 0.14070396 -0.055435497
-0.15799224 0.21663322 0.1263795 0.1328718 -0.003663156 -0.007852823 -0.27764717 -0.04218275
-0.16085227 -0.13834268 -0.028605385 0.25283527 -0.17515355 -0.17363295 -0.021568352 0.29588047
