mnist_fc_data/quick/0/same_init/initial/layer2.npy (npy, 4128 bytes, 1 tensors)

array f4 [100, 10]
-0.17908487 -0.1913716 -0.026125265 -0.09653916 0.20152645 0.10882589 0.081411175 0.18891983
-0.050455976 -0.06688292 -0.044680312 -0.1348043 0.23331174 0.10455847 -0.17798598 -0.026313078
-0.09196429 0.0608769 0.12380869 -0.034755774 0.22545359 0.17896084 0.09253899 0.0008459927
-0.021884875 -0.048285708 -0.0074730897 0.043577574 -0.13955656 -0.16259615 0.1996384 -0.0065496084
-0.102697045 0.104897216 -0.19197288 0.020555755 0.10220794 -0.06511947 0.090908326 0.1936388
0.1701639 -0.006405724 -0.12621294 -0.12995028 0.024604466 0.17999516 0.11097211 0.1021575
-0.062759124 -0.029163176 0.03560728 -0.1250031 0.08370549 0.03301714 0.25107437 -0.19017275
-0.09475421 0.038246106 -0.04101834 0.012973197 -0.05526586 0.010699136 0.16557741 0.073745444
0.13062598 -0.12839575 -0.0012743714 0.029182438 -0.22140338 0.06508166 -0.11196828 -0.050111324
0.011593618 -0.0027814365 0.09118798 0.09412541 -0.09129855 -0.12060446 0.064424574 -0.30060503
0.1276066 0.020749323 0.1848502 0.014172838 -0.00041068462 0.05265509 0.15139228 0.23865603
0.06999465 -0.0660738 0.16232146 0.04121516 0.1055936 -0.20474824 -0.088339016 -0.22074819
-0.04319892 -0.15090254 0.20288248 0.02057615 0.21349904 0.079711474 -0.15919293 -0.124129266
-0.013967817 0.05169026 0.053389955 -0.18741037 -0.020574052 0.049516287 -0.2234356 -0.10456649
-0.054372154 0.16361488 -0.04825028 0.08857639 -0.018642578 0.110939 -0.21756361 0.25866407
0.28186193 0.07977057 0.075377494 0.087394856 -0.03428722 0.014570914 -0.02018328 0.008666186
0.006160338 0.098701656 0.0012807428 0.214505 0.03260202 0.112128265 0.064761005 -0.15489547
-0.13344544 -0.2741736 0.09755187 0.07481816 0.049279496 0.141377 -0.15878037 0.08225033
0.16063021 -0.13238344 0.013774928 -0.05977486 -0.21633837 0.0607321 0.0057562855 0.059025086
0.2082076 -0.1426042 -0.029100485 -0.18695582 -0.17575508 0.16064352 -0.08094517 -0.056276802
-0.13772926 0.059220046 0.11330511 0.10277695 -0.04177506 -0.16420965 0.022027826 0.05316621
-0.22066884 0.106328346 0.1870647 0.14511798 0.24198715 0.27817327 0.16981469 -0.21478133
0.003591359 0.030271636 0.16968851 -0.14055654 -0.06956071 -0.2249451 0.0064108125 0.085084
-0.079545066 -0.099597566 0.07821398 -0.08885066 -0.06595095 -0.21483195 0.13969308 -0.26133847
0.20755339 -0.024440195 0.063791715 0.29824337 0.12095951 0.0854464 0.25201494 -0.06839563
-0.2516474 0.03471065 -0.26847482 0.022970142 0.024247544 -0.14504254 -0.13924128 0.051919904
-0.05029984 0.016882626 0.048797797 -0.028989391 -0.14484774 -0.023666074 -0.16479152 -0.12727048
-0.009216466 0.2603155 -0.06655769 -0.17228691 -0.09323213 0.09226883 0.054561563 0.05283229
-0.019485356 -0.13699563 -0.17460757 -0.09354367 -0.15430146 -0.2803497 -0.066096984 0.048362665
-0.06429391 0.015826061 0.056267645 0.25432268 -0.09557217 0.17210163 0.1338163 -0.06739455
-0.10865671 0.089802176 0.0943816 0.05929855 0.0575913 0.012181173 -0.236759 -0.03717626
-0.14921436 -0.0940969 -0.015158791 0.21635856 -0.10639526 -0.15343282 -0.039975967 0.26022786
00000000: 0662 37be ebf6 43be a704 d6bc 53b6 c5bd
00000010: f35c 4e3e 1ce0 de3d e7ba a63d 3374 413e
00000020: edaa 4ebd eaf9 88bd b402 37bd 230a 0abe
00000030: 46e9 6e3e c022 d63d f541 36be 868e d7bc
00000040: c657 bcbd 0e5a 793d 698f fd3d 125c 0ebd
00000050: 4edd 663e 8341 373e 1585 bd3d 9cc5 5d3a
00000060: e947 b3bc 3cc7 45bd d2e0 f4bb 667e 323d
00000070: eae7 0ebe 9b7f 26be 026e 4c3e 199e d6bb
00000080: d452 d2bd 5ad4 d63d 8a94 44be 8b64 a83c
00000090: 6552 d13d 5b5d 85bd 252e ba3d 4049 463e
000000a0: 723f 2e3e 1ce7 d1bb f73d 01be b011 05be
000000b0: 4e8f c93c a750 383e 5845 e33d f437 d13d
000000c0: db87 80bd 9de7 eebc f0d8 113d d000 00be
000000d0: c96d ab3d fb3c 073d d28c 803e a5bc 42be
000000e0: 7f0e c2bd f3a7 1c3d d902 28bd 888d 543c
000000f0: 745e 62bd 6e4b 2f3c 208d 293e da07 973d
00000100: d1c2 053e 2d7a 03be cf08 a7ba 0210 ef3c
00000110: 91b7 62be 8949 853d a04f e5bd 8841 4dbd
00000120: 29f3 3d3c c348 36bb c3c0 ba3d d3c4 c03d
00000130: bcfa babd 79ff f6bd 08f1 833d e7e8 99be
00000140: 4eab 023e 7cfa a93c 5f49 3d3e 3135 683c
00000150: 2851 d7b9 ddac 573d 9406 1b3e 3f62 743e
00000160: 5b59 8f3d b351 87bd 9937 263e 3ad1 283d
00000170: 7541 d83d 86a9 51be 16eb b4bd d00b 62be
00000180: 5af1 30bd 3286 1abe 6dc0 4f3e 508f a83c
00000190: 7e9f 5a3e c53f a33d 7903 23be 7c37 febd
000001a0: 45d9 64bc 2bb9 533d 6daf 5a3d 81e8 3fbe
000001b0: ea8a a8bc 97d1 4a3d 4dcc 64be f526 d6bd
000001c0: 56b5 5ebd a98a 273e 16a2 45bd 8a67 b53d
000001d0: 52b8 98bc fd33 e33d ffc8 5ebe 9e6f 843e
000001e0: 3550 903e c15e a33d 845f 9a3d 13fc b23d
000001f0: c270 0cbd d8ba 6e3c 6857 a5bc 9efc 0d3c
00000200: a9dc c93b 1824 ca3d 99de a73a 33a7 5b3e
00000210: b289 053d 81a3 e53d 6ba1 843d eb9c 1ebe
00000220: eca5 08be 7b60 8cbe 46c9 c73d 433a 993d
00000230: 4cd9 493d 22c5 103e 5297 22be dc72 a83d
00000240: 3f7c 243e 868f 07be 3cb0 613c 7cd6 74bd
00000250: ce87 5dbe 39c2 783d 399f bc3b 4ac4 713d
00000260: 6034 553e d606 12be 2464 eebc 5971 3fbe
00000270: 24f9 33be bc7f 243e 95c6 a5bd 8182 66bd
00000280: e608 0dbe b890 723d 820c e83d b97c d23d
00000290: 531c 2bbd 9326 28be b373 b43c d0c4 593d
000002a0: 03f7 61be adc2 d93d e48d 3f3e cf99 143e
000002b0: 7bcb 773e ba6c 8e3e e7e3 2d3e a3ef 5bbe
000002c0: 015d 6b3b 39fc f73c d3c2 2d3e 0eee 0fbe
000002d0: d875 8ebd 0258 66be cb11 d23b 8540 ae3d
000002e0: 86e8 a2bd cff9 cbbd a72e a03d 56f7 b5bd
000002f0: 4b11 87bd e8fc 5bbe b40b 0f3e 28ce 85be
00000300: e088 543e ce36 c8bc 3ba5 823d 5bb3 983e
00000310: 9fb9 f73d 86fe ae3d 1a08 813e 0213 8cbd
00000320: eed7 80be c12c 0e3d 8875 89be e12b bc3c
00000330: c9a2 c63c 0886 14be 4495 0ebe f7a9 543d
00000340: 3407 4ebd 6f4d 8a3c 33e0 473d 297b edbc
00000350: f752 14be 5bdf c1bc 1cbf 28be 3153 02be
00000360: a900 17bc 1348 853e 664f 88bd fb6b 30be
00000370: 7df0 bebd 71f7 bc3d f27b 5f3d ac66 583d
00000380: c19f 9fbc 9548 0cbe 54cc 32be d393 bfbd
00000390: 3401 1ebe ff89 8fbe db5d 87bd ee17 463d
000003a0: 87ac 83bd a8a5 813c e778 663d 9536 823e
000003b0: 58bb c3bd 693b 303e 2407 093e 2706 8abd
000003c0: 6987 debd 34ea b73d 244b c13d 09e3 723d
000003d0: dbe4 6b3d 8b93 473c f470 72be 2246 18bd
000003e0: a6cb 18be e0b5 c0bd 945c 78bc 198d 5d3e
000003f0: c2e5 d9bd 7e1d 1dbe d7bd 23bd 963c 853e
