mnist_fc_data/quick/0/same_init/initial/layer1.npy (npy, 120128 bytes, 1 tensors)

array f4 [300, 100]
0.02554859 -0.0629346 0.05897152 0.05911605 -0.021521881 -0.082822815 -0.020271866 -0.1243897
0.13429552 0.05602342 -0.06014909 0.02387672 -0.15977111 -0.07230534 -0.0029834532 -0.0012557233
-0.04268823 -0.008089014 -0.06914264 -0.05944196 -0.14365344 -0.010536351 0.066686645 -0.042890806
0.00500085 -0.10479769 0.040633485 0.13384959 0.05749677 -0.023826186 -0.0054772724 -0.11846977
0.087332115 0.005064185 0.010929191 -0.04740918 -0.15657069 -0.08720606 -0.118193716 -0.02727282
0.13709131 0.09929835 -0.0127094025 0.0063088182 0.057148818 -0.077252135 0.0037660743 0.044320673
0.11193668 0.021636704 -0.053471144 0.1249328 -0.07462539 0.0027445268 -0.041187096 -0.07703482
0.08717571 0.075846024 -0.050895542 -0.1506269 0.075755656 -0.04036838 0.043934423 -0.058731385
0.037913177 0.012572999 0.13145138 -0.034301646 0.037151806 0.024391582 -0.097575404 -0.04676835
0.028452892 -0.12843247 0.0072558597 0.12204623 0.025096474 -0.0032317617 0.11692578 0.03515444
0.033789586 0.013083036 -0.09938612 -0.007927489 -0.05533701 0.02146379 0.09230431 0.022949686
-0.08474179 0.082806654 -0.11051558 -0.027013427 0.10001155 0.14899054 0.056831732 0.058065005
-0.12647286 -0.040775947 0.07890611 0.03576217 0.119493224 0.08065736 -0.08667064 0.0028428421
0.038350046 -0.0074065216 0.15257832 -0.017095799 0.060760535 -0.031276613 -0.017219806 0.0049735857
0.08831528 -0.0681704 -0.041901007 -0.039776567 0.049441226 0.02288502 0.01788797 -0.04980598
0.035802115 -0.07939738 -0.02834762 -0.057014488 -0.08323212 -0.07576658 0.044060066 -0.043850344
-0.016511753 -0.09981919 0.020655505 -0.026584107 0.073734015 -0.14646299 -0.123745054 -0.09802554
-0.056485176 -0.12117961 0.056064565 -0.00827889 -0.003971163 -0.019092388 0.035979975 -0.068284355
-0.13473912 0.0055604675 -0.0066506187 0.038630363 0.0023995764 0.03241872 0.06926342 -0.12638849
0.10397164 0.08419368 0.008149893 -0.059927966 -0.06297095 0.12390334 0.0022134543 0.07867432
0.023332715 -0.0016640452 0.00077667163 0.03362658 -0.005407646 -0.10447019 -0.06953332 0.0965309
0.024589287 -0.085681334 0.032212693 -0.047598545 0.0016140434 -0.05344297 -0.13496011 0.023535157
-0.01982106 0.045312095 0.062017042 -0.07972966 -0.0845579 -0.052589346 0.048368618 -0.1193663
-0.096559346 -0.034387942 -0.010785043 0.006582977 0.04070847 0.033576753 -0.05344444 -0.027335284
0.034900557 -0.15970553 -0.048751153 -0.031945225 -0.06336906 0.0016092963 0.04621686 -0.0048426064
-0.06502788 -0.012550726 -0.02838243 -0.088586666 0.1234219 -0.09049011 -0.040515635 -0.004878424
0.029688181 -0.00426084 -0.014769177 -0.14336151 -0.12611263 0.025494035 -0.10212227 0.064286835
0.053314507 0.033148557 0.141594 0.104431234 -0.08630623 -0.064286135 0.1013356 -0.07848428
-0.024957359 0.018126337 0.05519825 -0.04974476 -0.07172872 0.0673531 -0.08418997 -0.02074569
-0.006212455 -0.03997213 -0.0009921675 -0.058950055 -0.1014665 -0.025101347 0.0013752937 -0.07682426
0.028004061 -0.011318502 0.06595792 0.112948455 0.030878952 0.0640326 0.02598079 -0.12078972
-0.15363015 -0.062203284 0.10303446 0.043008663 -0.0729457 0.040869858 0.015461001 0.042710185
00000000: 474b d13c dbe3 80bd 1f8c 713d ac23 723d
00000010: a84e b0bc 029f a9bd 2f11 a6bc 07c0 febd
00000020: c484 093e d078 653d e45e 76bd 1c99 c33c
00000030: 0a9b 23be d214 94bd 0a86 43bb 1597 a4ba
00000040: dad9 2ebd c987 04bc a89a 8dbd 6a79 73bd
00000050: e319 13be a9a0 2cbc 0293 883d 45ae 2fbd
00000060: 2cde a33b 2ca0 d6bd 4c6f 263d de0f 093e
00000070: bc81 6b3d 222f c3bc b17a b3bb 47a0 f2bd
00000080: 2edb b23d 76f1 a53b 5910 333c 2130 42bd
00000090: 1154 20be 1799 b2bd 8c0f f2bd 406b dfbc
000000a0: aa61 0c3e ef5c cb3d 193b 50bc 34ba ce3b
000000b0: e114 6a3d 5e36 9ebd 3ed0 763b 9889 353d
000000c0: 0f3f e53d 753f b13c 8f04 5bbd c5dc ff3d
000000d0: 32d5 98bd 85dd 333b cdb3 28bd 6fc4 9dbd
000000e0: 2e89 b23d 2955 9b3d d877 50bd f03d 1abe
000000f0: c825 9b3d 5059 25bd 95f4 333d 5290 70bd
00000100: d94a 1b3d fbfe 4d3c 319b 063e e27f 0cbd
00000110: 7e2c 183d dbd0 c73c 9dd5 c7bd 2b90 3fbd
00000120: 0a16 e93c cd83 03be 90c2 ed3b 60f3 f93d
00000130: 1f97 cd3c f7cb 53bb c976 ef3d 1afe 0f3d
00000140: f366 0a3d 3b5a 563c f38a cbbd 4ce2 01bc
00000150: 10a9 62bd d5d4 af3c 0b0a bd3d fb00 bc3c
00000160: 1b8d adbd 8996 a93d fe55 e2bd 434b ddbc
00000170: dbd2 cc3d fa90 183e 64c8 683d 92d5 6d3d
00000180: 1a82 01be ae04 27bd 8799 a13d 5a7b 123d
00000190: ddb8 f43d b02f a53d 6080 b1bd fa4e 3a3b
000001a0: f014 1d3d 68b2 f2bb 7e3d 1c3e 7d0c 8cbc
000001b0: 0ae0 783d e81b 00bd 8d10 8dbc 76f9 a23b
000001c0: a4de b43d ec9c 8bbd 64a0 2bbd c1ec 22bd
000001d0: e282 4a3d 5e79 bb3c cb89 923c 5b01 4cbd
000001e0: 3da5 123d 189b a2bd 4539 e8bc 0688 69bd
000001f0: 9a75 aabd 822b 9bbd 5478 343d 6b9c 33bd
00000200: a843 87bc 016e ccbd bc35 a93c eac6 d9bc
00000210: dc01 973d 65fa 15be 0c6e fdbd 9dc1 c8bd
00000220: 005d 67bd 042d f8bd f5a3 653d 2ea4 07bc
00000230: 8820 82bb a467 9cbc bd5f 133d abd8 8bbd
00000240: 0df9 09be 9534 b63b 6fed d9bb df3a 1e3d
00000250: 3642 1d3b 7ec9 043d fbd9 8d3d fc6b 01be
00000260: 15ef d43d bc6d ac3d 2187 053c 0777 75bd
00000270: eaf6 80bd 09c1 fd3d 9a0f 113b 0020 a13d
00000280: 4024 bf3c 171c daba 8d99 4b3a 06bc 093d
00000290: 9f32 b1bb 78f4 d5bd 7c67 8ebd feb1 c53d
000002a0: 796f c93c b279 afbd 75f1 033d b1f6 42bd
000002b0: 4f8e d33a 04e7 5abd fc32 0abe cdcc c03c
000002c0: c75f a2bc 2d99 393d 9505 7e3d 4e49 a3bd
000002d0: b12c adbd ed67 57bd 2c1e 463d 5276 f4bd
000002e0: e8c0 c5bd 5fda 0cbd c0b3 30bc 03b6 d73b
000002f0: edbd 263d c787 093d 8fe8 5abd 3fee dfbc
00000300: e3f3 0e3d d989 23be 4aaf 47bd ffd8 02bd
00000310: a3c7 81bd 06ef d23a e44d 3d3d baae 9ebb
00000320: 562d 85bd 8fa1 4dbc 4582 e8bc ed6c b5bd
00000330: 9fc4 fc3d e152 b9bd b9f3 25bd 30db 9fbb
00000340: a134 f33c 849e 8bbb 6bfa 71bc 5ccd 12be
00000350: ab23 01be ded8 d03c 7b25 d1bd d1a8 833d
00000360: 5060 5a3d c8c6 073d 04fe 103e 0be0 d53d
00000370: 52c1 b0bd 73a8 83bd 0a89 cf3d 5ebc a0bd
00000380: 6073 ccbc af7d 943c 8f17 623d 29c1 4bbd
00000390: 82e6 92bd 6cf0 893d ca6b acbd def2 a9bc
000003a0: da91 cbbb d1b9 23bd 9e0b 82ba 9d75 71bd
000003b0: abcd cfbd 57a1 cdbc 3343 b43a 0a56 9dbd
000003c0: c668 e53c 3d71 39bc f214 873d 8551 e73d
000003d0: dbf5 fc3c 8623 833d aad5 d43c 9a60 f7bd
000003e0: 3951 1dbe dfc8 7ebd bb03 d33d da29 303d
000003f0: 8e64 95bd 2767 273d 2350 7d3c e0f0 2e3d
