mnist_fc_data/quick/0/same_init/initial/layer0.npy (npy, 940928 bytes, 1 tensors)

array f4 [784, 300]
0.050949655 -0.020642318 0.0023179688 -0.0036231505 -0.0052402043 -0.021411704 -0.054125953 0.059062127
0.012266636 -0.056347236 0.001066952 0.04653572 0.031014623 0.032248013 -0.028389607 0.011841826
0.060704734 -0.023195354 0.020432353 0.073356576 0.08694758 -0.001533721 -0.0078122527 0.0003660012
0.036959145 0.01823662 -0.04893291 0.07199755 -0.0015938409 0.09420871 0.06627547 0.002530303
0.010031972 -0.02562814 0.06817785 0.001930201 0.036197994 0.05465678 0.05473638 -0.0070858593
0.05162341 0.021259733 -0.07674982 -0.01549657 -0.02738683 -0.08004456 0.019131407 -0.050290707
-0.01794294 0.011110765 0.0035578737 -0.04089186 0.016493475 -0.07961362 0.036273073 0.017252382
-0.0033323844 -0.016720425 0.013021213 -0.06746291 0.01018109 -0.035292074 -0.027876044 -0.07809138
-0.043725505 0.04101391 0.0056969346 -3.1849624e-05 0.037542403 0.037003517 -0.08407763 -0.04187204
-0.0050415997 -0.030169323 -0.037994616 -0.023849005 0.07358764 0.05586268 -0.07967973 0.0028053252
0.004362979 0.00048197273 -0.06971869 0.037841037 -0.05150222 0.030181222 -0.03736012 -0.029160623
-0.018742943 0.0026923877 -0.02921265 -0.013707817 -0.0039356933 0.04931389 -0.026816212 0.012202511
0.040691484 0.013920574 0.080009975 0.031700414 -0.09586439 0.031546462 -0.053391956 -0.04214268
-0.006209622 0.02167193 0.04368991 0.003155617 -0.013564412 0.0478749 -0.018561598 0.094521426
0.084348276 0.00045293255 0.08824384 -0.038167335 0.057994977 0.061456688 -0.04259134 -0.036874913
-0.025786271 0.051431254 0.035839386 0.05601386 0.030342711 0.029907843 -0.011397234 -0.0009275508
-0.08052846 0.018908074 0.035191216 -0.083203696 -0.03183891 -0.0878271 -0.066913135 -0.0011277194
-0.05730619 0.041529123 -0.044106174 -0.011161063 0.06311849 0.041914716 -0.021831064 -0.024680967
-0.08105975 -0.020022457 -0.01455221 0.047719117 0.04284086 -0.0050308434 -0.06804004 -0.05640858
0.04716825 -0.01667839 0.06463879 -0.002146462 0.021458661 0.014016823 -0.07150789 -0.062368587
0.033072736 0.023486195 -0.016466893 -0.025959471 -0.039400496 -0.06189119 0.017071778 0.07165141
0.018040175 0.08945451 -0.018360095 -0.031710412 0.053286564 0.00417577 -0.020676753 0.018527582
0.07244344 -0.07311887 -0.06033546 -0.031451505 -0.02027317 0.041169453 0.0072674914 -0.0624608
-0.014692107 -0.045458253 -0.051274 -0.03675139 -0.046072923 -0.015442566 -0.028977811 -0.0035702384
-0.027481262 0.020216824 0.05615024 -0.06166063 0.090558305 0.015739065 -0.03274267 0.017174298
-0.016189966 -0.0028252522 0.021734666 0.050431807 -0.00798827 -0.0197323 0.02402164 0.07803819
-0.027840191 -0.008369826 0.014838279 0.004449405 0.077276036 -0.03128228 -0.0390987 0.049104054
-0.02284398 0.015490168 0.04820289 0.09523068 0.019179422 -0.07639546 0.031026026 -0.030692087
0.037089843 0.004617301 -0.023119096 -6.780881e-05 0.05973274 -0.024884174 0.033894945 0.055905353
0.020283084 0.00517166 -0.089942954 -0.028983504 0.02722974 -0.03552093 -0.043984026 0.014669225
-0.06126286 -0.06702246 -0.022282183 -0.006865843 0.016596694 -0.023371307 -0.07866743 -0.036006313
0.010030775 -0.034470465 0.061894465 0.04340228 -0.022808148 0.010833996 0.022010712 0.017608628
00000000: 96b0 503d 141a a9bc 10e9 173b 6172 6dbb
00000010: 05b6 abbb 9967 afbc 2db3 5dbd 21eb 713d
00000020: 00fa 483c 5ccc 66bd f8d8 8b3a 3d9c 3e3d
00000030: 6112 fe3c 7e16 043d 5291 e8bc 3804 423c
00000040: 87a5 783d 2f04 bebc c061 a73c f93b 963d
00000050: 9311 b23d 2307 c9ba edfd ffbb d9e3 bf39
00000060: 7962 173d f764 953c e06d 48bd 7473 933d
00000070: 6de8 d0ba 7ff0 c03d 6fbb 873d 71d3 253b
00000080: 245d 243c 1bf2 d1bc d4a0 8b3d ccfe fc3a
00000090: 5944 143d cadf 5f3d 4133 603d 7f30 e8bb
000000a0: 1273 533d e428 ae3c 022f 9dbd 53e5 7dbc
000000b0: 585a e0bc 67ee a3bd 78b9 9c3c a1fd 4dbd
000000c0: 13fd 92bc ed09 363c 372b 693b 397e 27bd
000000d0: 531d 873c 770c a3bd 1393 143d de54 8d3c
000000e0: 2264 5abb 46f9 88bc ed56 553c ff29 8abd
000000f0: 96ce 263c 6c8e 10bd 4d5c e4bc 60ee 9fbd
00000100: 8419 33bd 34fe 273d 5aad ba3b 4696 05b8
00000110: 10c6 193d 0091 173d e430 acbd 0482 2bbd
00000120: 0134 a5bb a825 f7bc 3ea0 1bbd fd5e c3bc
00000130: 1eb5 963d 44d0 643d 202f a3bd 8cd9 373b
00000140: 52f7 8e3b 49b1 fc39 acc8 8ebd 34ff 1a3d
00000150: fef3 52bd 9c3e f73c ed06 19bd 42e2 eebc
00000160: cd8a 99bc c572 303b 5e4f efbc c096 60bc
00000170: fdf6 80bb 5dfd 493d acad dbbc 0aed 473c
00000180: 1dac 263d 1f13 643c 45dc a33d 4bd8 013d
00000190: 8d54 c4bd dd36 013d 86b1 5abd ce9d 2cbd
000001a0: 167a cbbb 5589 b13c 31f4 323d 78ce 4e3b
000001b0: 443d 5ebc 7918 443d 7e0e 98bc 7394 c13d
000001c0: cabe ac3d 9477 ed39 30b9 b43d 5a55 1cbd
000001d0: 248c 6d3d 02ba 7b3d 4274 2ebd 260a 17bd
000001e0: bb3d d3bc 94a9 523d 52cc 123d ca6e 653d
000001f0: 4791 f83c 4b01 f53c 77bb 3abc e126 73ba
00000200: 1bec a4bd 1be5 9a3c aa24 103d b366 aabd
00000210: 8469 02bd b2de b3bd c109 89bd fccf 93ba
00000220: e5b9 6abd 711a 2a3d ada8 34bd e4dc 36bc
00000230: 4444 813d c4ae 2b3d 0fd7 b2bc bd2f cabc
00000240: a702 a6bd 2306 a4bc 656c 6ebc 1f75 433d
00000250: e679 2f3d c6d9 a4bb 9458 8bbd af0c 67bd
00000260: 7f33 413d 1ea1 88bc 5861 843d a8ab 0cbb
00000270: 13ca af3c d1a6 653c bb72 92bd 3476 7fbd
00000280: 4777 073d 1f66 c03c 94e5 86bc f5a8 d4bc
00000290: 6a62 21bd 9e81 7dbd 1dda 8b3c f9bd 923d
000002a0: fdc8 933c ed33 b73d e967 96bc c7e2 01bd
000002b0: 0343 5a3d e6d4 883b 4b62 a9bc 28c7 973c
000002c0: 3a5d 943d 59bf 95bd 5122 77bd 4bd3 00bd
000002d0: eb13 a6bc 4da1 283d 2324 ee3b e5d6 7fbd
000002e0: 2ab7 70bc 6f32 3abd b004 52bd a088 16bd
000002f0: f6b6 3cbd d102 7dbc e062 edbc a9fa 69bb
00000300: 6220 e1bc c19d a53c cbfd 653d db8f 7cbd
00000310: a276 b93d 36ef 803c 2e1d 06bd 1db1 8c3c
00000320: d2a0 84bc de27 39bb e60c b23c 9591 4e3d
00000330: 3ce1 02bc a2a5 a1bc 08c9 c43c 7dd2 9f3d
00000340: 1d11 e4bc 9821 09bc 411c 733c 50cc 913b
00000350: e642 9e3d d921 00bd f525 20bd 5521 493d
00000360: 4c23 bbbc 79ca 7d3c 6570 453d 4e08 c33d
00000370: 2a1e 9d3c 3975 9cbd 4b2a fe3c f96d fbbc
00000380: 85eb 173d ba4c 973b 4264 bdbc 9434 8eb8
00000390: 51aa 743d e5d9 cbbc 6dd5 0a3d 03fd 643d
000003a0: b628 a63c 0777 a93b 0334 b8bd d06e edbc
000003b0: e710 df3c 657e 11bd 9828 34bd 3057 703c
000003c0: c4ee 7abd 1243 89bd 2089 b6bc defa e0bb
000003d0: caf5 873c 2f75 bfbc 641c a1bd 5b7b 13bd
000003e0: 1f58 243c e730 0dbd 0d85 7d3d 97c6 313d
000003f0: 27d8 babc 1381 313c cf4f b43c f83f 903c
